policy_net.onnx (onnx, 160740 bytes, 6 tensors)

network.0.weight f4 [128, 180]
0	0xbd969c08	-0.07353979
1	0x3d09838c	0.03357272
2	0xbd8234f4	-0.06357756
3	0xbd76b43b	-0.060230475
4	0xbd1ccdbc	-0.03828214
5	0xbd593848	-0.05303219
6	0xb9cb947c	-0.00038829807
7	0xbd8987b6	-0.06715338
8	0x3c13c960	0.0090201795
9	0x3d7b93c1	0.061420206
10	0x3ccea4a3	0.02522499
11	0xbc8e5ab6	-0.017377239
12	0x3d8a6acd	0.06758652
13	0x3d735f14	0.059416845
14	0xbd057c13	-0.03258903
15	0x3d0da6f8	0.034583062
16	0x3b8d9375	0.0043205568
17	0x3cbf12c5	0.02332438
18	0xbd4d1d2d	-0.050076652
19	0xbca59e41	-0.020217063
20	0xba5808d2	-0.00082410604
21	0xbcd6d66c	-0.026225291
22	0xbcbb48b5	-0.022861818
23	0xbd957e2e	-0.072994575
24	0x3ca92c2f	0.020650951
25	0x3d3873aa	0.04503218
26	0x3d418752	0.047248192
27	0x3cbb671a	0.022876311
28	0xbd57fdbe	-0.05273222
29	0x3d1ce190	0.03830105
30	0x3d11e483	0.035618316
31	0xbc1927d0	-0.009347871
32	0xbd68099f	-0.0566498
33	0xbd7ab39d	-0.06120645
34	0x3d2c72a0	0.042101502
35	0xbc541aed	-0.012945873
36	0xbcc52810	-0.024066955
37	0x3d0e2caa	0.034710564
38	0xbcafb9b3	-0.021450853
39	0xbd073e6c	-0.033018515
40	0xbca9c6d4	-0.020724691
41	0xbb18fded	-0.002334471
42	0x3d1df1b1	0.038560573
43	0xbd58fc7f	-0.052975174
44	0xbc6f1b48	-0.014593907
45	0x3d238c6d	0.039928842
46	0xbb62c7a1	-0.0034603851
47	0x3b9975da	0.0046832385
48	0xbce23197	-0.027611537
49	0x3d8d1d5a	0.06890364
50	0xbd807686	-0.062726066
51	0xbd5e4799	-0.0542675
52	0x3d4cd7ec	0.050010607
53	0x3c235b77	0.009970537
54	0xbd9109b2	-0.07081927
55	0x3af24775	0.0018484431
56	0x3d8dabba	0.0691752
57	0x3cc8b697	0.024501128
58	0x3d06ae70	0.0328812
59	0xbd594380	-0.05304289
60	0xbcb05a96	-0.02152757
61	0xbd335eb3	-0.043791484
62	0xbd34f265	-0.044176478
63	0xbd39a888	-0.04532674
64	0xbcb7cc2f	-0.02243623
65	0x3c876511	0.016527684
66	0x3d1886d8	0.037237972
67	0x3d4498a5	0.047997136
68	0xbd5a2a45	-0.053262968
69	0x3d6b7605	0.0574856
70	0xbd73ebb8	-0.05955097
71	0xbd09aaf0	-0.033610284
72	0xbc185bec	-0.00929926
73	0xbb936a0c	-0.0044987258
74	0x3d2401d4	0.040040806
75	0x3bff1e2e	0.00778558
76	0x3d751c4f	0.05984145
77	0x3b8a1d28	0.0042149015
78	0x3d7491e3	0.05970944
79	0x3d7f9b13	0.06240375
80	0x3aba0302	0.001419157
81	0xbcd655b3	-0.026163911
82	0x3d010663	0.03150023
83	0x3d8e640e	0.06952678
84	0xbd0614fc	-0.032734856
85	0xbd56840d	-0.052372027
86	0x3d7a2725	0.061072487
87	0xbcf21c0f	-0.029554395
88	0x3c9d2b9f	0.01918584
89	0x3cfb7e1e	0.030699786
90	0x3d37b080	0.044846058
91	0x3b1cc861	0.0023923146
92	0x3d738db1	0.0594613
93	0x3d5b6f6c	0.053573057
94	0xbd191fe0	-0.037383914
95	0xbc3efa6f	-0.011656388
96	0xbc944753	-0.018100416
97	0x3c5f4000	0.013626099
98	0xbaa9546a	-0.0012918834
99	0xbc9202d2	-0.01782361
100	0x3cdcbb14	0.026944675
101	0xbd88090d	-0.06642351
102	0x3d597ca2	0.053097375
103	0xbb911576	-0.004427607
104	0x3d4aa46d	0.049473215
105	0x3bd1a359	0.0063976464
106	0xbd1dd0d0	-0.038529217
107	0xbd96fabf	-0.07372045
108	0x3c85236f	0.016252248
109	0x3cad3282	0.021142248
110	0xbd3eb806	-0.046562217
111	0x3c8083cf	0.015687851
112	0xbc9f0078	-0.019409403
113	0xbd21db59	-0.039515827
114	0x3d8b74c4	0.06809381
115	0x3d39d0ad	0.045365024
116	0xbd87bee5	-0.06628207
117	0xbcd78dd1	-0.02631274
118	0x3c03ce15	0.008044739
119	0xbc810f74	-0.015754439
120	0x3cbb4915	0.022861997
121	0xbc3d7c54	-0.011565287
122	0x3ce8514c	0.028359078
123	0x3cd6d18f	0.026222972
124	0x3d3a0644	0.04541613
125	0xbb25ae09	-0.0025280735
126	0xbd4e4741	-0.05036092
127	0x3cc932e0	0.024560392
128	0x3ce5ecd7	0.028067036
129	0xbd93b838	-0.07212871
130	0xbd87661c	-0.06611273
131	0xbcffd47f	-0.031229256
132	0xbd96b844	-0.07359365
133	0x3c97dc2b	0.018537601
134	0xbcf22eb2	-0.029563282
135	0x3d8c7ed2	0.068601266
136	0x3d039311	0.032122675
137	0xbc9cda1e	-0.019146975
138	0xbc4220fc	-0.011848684
139	0x3d490d60	0.04908502
140	0xbd724226	-0.059145115
141	0xbb0815f1	-0.0020765031
142	0xbd84ddf2	-0.06487645
143	0xbc194191	-0.009354011
144	0xbcb3be67	-0.021941377
145	0xbd6e054f	-0.05811053
146	0xbd3ed987	-0.04659417
147	0xbd0d5fdf	-0.034515258
148	0x3d620b70	0.05518669
149	0xbbdb534c	-0.0066932794
150	0xbd939566	-0.0720623
151	0x3d4944e8	0.04913798
152	0x3c8272f8	0.015923962
153	0x3d10aac1	0.035319094
154	0x3cdf0f54	0.027228989
155	0x3cbe076e	0.023196902
156	0xbd04b9e4	-0.03240384
157	0x3cb1ff6a	0.021728236
158	0xbd91d38b	-0.07120427
159	0xbd8cce2c	-0.06875262
160	0xbd18f484	-0.037342563
161	0x3d2dc294	0.042421892
162	0xbb8e4c4e	-0.0043425923
163	0x3c8e42b6	0.017365795
164	0x3cacd088	0.02109553
165	0x3d2eb7f0	0.042655885
166	0x3d6f2033	0.058380317
167	0xbaeebab8	-0.0018213606
168	0x3cfeb0a2	0.031090084
169	0x3d13bd2c	0.03606908
170	0xbcd42faf	-0.025901644
171	0x3d106de8	0.035261065
172	0xbd1c726e	-0.038195066
173	0xbd00fd74	-0.03149171
174	0xbd029d55	-0.031888325
175	0xbd4ac711	-0.04950625
176	0x3cd3987d	0.025829548
177	0x3c8cbb36	0.017179113
178	0xbcbe301c	-0.0232163
179	0xbd942882	-0.07234289
180	0x3d89240b	0.06696328
181	0xbcd78932	-0.026310537
182	0x3c9d8cf2	0.019232247
183	0x3cffc832	0.03122339
184	0x3b9cfea4	0.0047910977
185	0x3d3a1ba2	0.04543651
186	0x3d8e1cf0	0.06939113
187	0xbd65b48e	-0.056080393
188	0x3d83a8bf	0.0642867
189	0xbcfe94f1	-0.03107688
190	0x3d9567c9	0.07295186
191	0xbd6a34f6	-0.057179414
192	0xbd8f84c0	-0.07007742
193	0xbd3aab0e	-0.045573287
194	0x3d16174a	0.036643304
195	0xbd2c0dfc	-0.042005524
196	0x3d8e5900	0.06950569
197	0x3d7c2a26	0.061563633
198	0x3d05c826	0.03266158
199	0xbd0daa7d	-0.03458642
200	0xbd782792	-0.060584612
201	0x3ce27ecf	0.027648358
202	0x3d2f8479	0.042850945
203	0x3d200730	0.039069355
204	0x3d2a5e84	0.041594043
205	0xbd429bd9	-0.04751191
206	0xbd4e8ba6	-0.050426148
207	0x3b1eeee6	0.0024251281
208	0xbd696dc6	-0.056989454
209	0x3d5b2b85	0.0535083
210	0x3cb419ea	0.021985013
211	0xbd4be222	-0.049776204
212	0x3d7f5e6e	0.062345915
213	0x3d97c9bd	0.074115254
214	0xbcc19b96	-0.02363376
215	0xbd8e5787	-0.06950288
216	0x3d8e6c11	0.06954206
217	0xb820537a	-3.8224716e-05
218	0x3d07858c	0.033086345
219	0xbb28c955	-0.002575477
220	0xbd38d1bf	-0.045121904
221	0x3cc4dcf3	0.024031138
222	0x3ce7eb50	0.028310448
223	0x3d938104	0.07202342
224	0x3b8f91ce	0.004381395
225	0xbd0b0194	-0.033937052
226	0x3cf305bf	0.029665826
227	0xbd011415	-0.031513292
228	0x3d220658	0.03955683
229	0xbd400560	-0.046880126
230	0xbd6215cf	-0.05519658
231	0xbd8d6846	-0.06904654
232	0x3d2a7879	0.041618798
233	0xbd843025	-0.06454495
234	0x3cf11751	0.029430063
235	0xbc289ae5	-0.010290836
236	0xbc89d7b0	-0.01682648
237	0x3d981a37	0.07426875
238	0x3cbe6342	0.02324069
239	0x3d8e7438	0.06955761
240	0xbd514026	-0.051086567
241	0xbd5de1c1	-0.054170374
242	0xbb77c8c7	-0.0037808882
243	0x3d1c4756	0.03815397
244	0x3c97aba0	0.018514454
245	0x3d967d9e	0.07348178
246	0xbd8cba68	-0.06871492
247	0x3d228631	0.039678756
248	0x3d72b5a2	0.05925525
249	0x3d150eb9	0.036390994
250	0xbb117c3f	-0.00221993
251	0x3d62d1f4	0.05537601
252	0xbbf5a5e9	-0.0074965847
253	0xbd4ca046	-0.049957536
254	0x3d3198be	0.043358557
255	0x3c8a32d3	0.016869938

network.0.bias f4 [128]
0	0x3d07c6ef	0.033148702
1	0xbcb888a0	-0.022526085
2	0xbcf2148d	-0.029550815
3	0xbc9dd95d	-0.019268686
4	0x3d350f9a	0.044204332
5	0x3d295a1b	0.041345697
6	0x3d3f7f0b	0.046752017
7	0x3d757483	0.059925567
8	0x3cdd639f	0.027025042
9	0xbd092c17	-0.033489313
10	0x3d97818c	0.07397756
11	0xbc2d6b31	-0.010584638
12	0xbc7f9c38	-0.01560121
13	0x3d676db2	0.056501098
14	0xbd94357c	-0.07236764
15	0x3d4a9b38	0.049464434
16	0x3c8da1fe	0.017289158
17	0xbd5809dd	-0.05274378
18	0x3d541f19	0.05178747
19	0xbc9461f8	-0.018113121
20	0xbce47427	-0.027887417
21	0xbd18d158	-0.03730902
22	0xbd4a170f	-0.049338397
23	0xbd6de7c9	-0.058082376
24	0x3d72728f	0.059191283
25	0x3d4d22e3	0.0500821
26	0x3cd668ab	0.026172956
27	0x3d3fdb2e	0.046839885
28	0xbd3beb75	-0.045878846
29	0xbc9692aa	-0.018380482
30	0xbd0f940f	-0.03505331
31	0x3c9bf9dc	0.01904004
32	0x3cbc54f2	0.022989724
33	0x3d91d2f9	0.07120318
34	0x3c6a1712	0.014287727
35	0xbd860202	-0.06543352
36	0xbc02dca9	-0.00798718
37	0x3d74f5db	0.05980478
38	0xbd27d89e	-0.040978067
39	0x3d5b784d	0.053581525
40	0xbb5a8b2b	-0.003334711
41	0xbd8a44a5	-0.06751374
42	0x3c03e00b	0.0080490215
43	0xbd97dfe4	-0.074157506
44	0xbd173865	-0.036919016
45	0x3d353d8e	0.044248156
46	0x3d386e00	0.04502678
47	0x3cd10b0d	0.025517965
48	0x3d8a5e17	0.067562275
49	0x3d91eb74	0.07124987
50	0x3d67fe1e	0.05663883
51	0x3ce90015	0.028442422
52	0xbccc7b9f	-0.02496129
53	0xbd93ccec	-0.0721682
54	0xbd560c5b	-0.052257877
55	0x3c70043e	0.014649449
56	0x3b4a252c	0.003084491
57	0x3c70f449	0.01470668
58	0x3d980511	0.07422841
59	0xbd44354d	-0.047902394
60	0xbc113672	-0.008863078
61	0xbd8a4534	-0.06751481
62	0x3ca45e29	0.02006443
63	0x3d0ab27a	0.033861615
64	0x3d29074f	0.041266736
65	0x3c84b275	0.016198376
66	0xbd13ce7e	-0.0360856
67	0x382dd128	4.1441206e-05
68	0xbbd233b9	-0.006414857
69	0x3c4aea78	0.012385003
70	0x3bb517ba	0.00552651
71	0xbcb3fb18	-0.021970317
72	0x3d840546	0.06446318
73	0x3b908fbf	0.004411667
74	0x3d164247	0.0366843
75	0x3d86939d	0.06571124
76	0x3b97523d	0.004617958
77	0xbd9066cf	-0.07050859
78	0xbc3076d6	-0.01077052
79	0xbd307a86	-0.043085597
80	0x3c7c7601	0.015408994
81	0xbd8793cc	-0.06619987
82	0x3d01eae5	0.031718154
83	0xbb92ccda	-0.0044799866
84	0x3d5fcab3	0.05463667
85	0x3d986dcd	0.07442818
86	0xbd896610	-0.0670892
87	0xbd0e1511	-0.03468806
88	0x3d833854	0.06407228
89	0x3d7c88ee	0.061654024
90	0xbca43572	-0.020045016
91	0x3d853770	0.065047145
92	0xbd06d23b	-0.032915335
93	0x3c8b7a00	0.017025948
94	0xbd884168	-0.066531
95	0xbb849855	-0.0040464797
96	0xbd85d6c8	-0.06535107
97	0x3d88bcc1	0.06676627
98	0xbc5da50c	-0.01352812
99	0x3d3f4cf7	0.04670426
100	0x3d36c48a	0.044621028
101	0x3d18ddfa	0.03732107
102	0x3d8c8140	0.0686059
103	0x3c0d4778	0.0086229965
104	0x3d053b85	0.032527465
105	0x3d57e470	0.05270809
106	0x3d79ae0f	0.06095701
107	0x3d62d4ad	0.055378605
108	0xbb5e0b62	-0.0033881296
109	0x3cc32dfc	0.023825638
110	0x3b486a95	0.0030581106
111	0xbce92fbb	-0.028465142
112	0x3c0b6cfa	0.008509869
113	0xbd9871be	-0.074435696
114	0x3d725cde	0.059170596
115	0x3d0c27b5	0.034217555
116	0xbd054f26	-0.032546185
117	0xbd896800	-0.067092896
118	0x3cc2356d	0.023707116
119	0x3d0379b2	0.03209848
120	0xbd0cf409	-0.034412418
121	0x3d659874	0.056053594
122	0x3c609031	0.013706253
123	0x3d86adf6	0.06576149
124	0x3d928f26	0.0715621
125	0xba6bd5d6	-0.00089964026
126	0xbd84ed6f	-0.06490599
127	0xbd466b2f	-0.048442062

network.2.weight f4 [128, 128]
0	0xbce7cdaf	-0.02829632
1	0x3d823195	0.06357113
2	0xbdb3a74c	-0.08772144
3	0xbd327fa9	-0.043578777
4	0x3cf7c79c	0.030246548
5	0xbbffdb09	-0.0078080934
6	0x3da5fe7b	0.08105179
7	0x3ccd6bf9	0.0250759
8	0xbd88aaf1	-0.066732295
9	0xbd5ffc9a	-0.05468426
10	0x3be3f2b1	0.0069564213
11	0x3c64287a	0.013925666
12	0xbd506f92	-0.05088765
13	0x3a0fe07c	0.0005488468
14	0xbd693a2c	-0.056940243
15	0x3ce75678	0.028239474
16	0x3c5f9314	0.013645906
17	0x3c07f8bf	0.008299052
18	0xbd981028	-0.074249566
19	0x3d452d1b	0.04813872
20	0xbc1f4b61	-0.009722562
21	0xbc2bf3ea	-0.010495165
22	0x3c3ce960	0.01153025
23	0xbccb1ca8	-0.024793938
24	0x3d0afcbb	0.03393243
25	0x3d2b3496	0.041798197
26	0xbd7a9638	-0.061178416
27	0x3ba72a31	0.005101465
28	0x3d983ee3	0.0743387
29	0xbcbdc50b	-0.023165246
30	0xbdad2f6c	-0.08456311
31	0xbd9752dc	-0.07388851
32	0xbd890b72	-0.06691636
33	0xbd010295	-0.031496603
34	0xbd8fc225	-0.07019452
35	0xbda50c6a	-0.080590084
36	0x3daa4c26	0.083153054
37	0xbdb0b3a0	-0.08628011
38	0xbc547d32	-0.012969302
39	0xbd6dd9ba	-0.05806897
40	0x3d0fde76	0.035124265
41	0x3d331b8e	0.04372745
42	0x3cd847f6	0.026401501
43	0x3ab41f24	0.0013742191
44	0x3d223f49	0.039611135
45	0x3c15051e	0.009095458
46	0xbd2e28a4	-0.042519227
47	0x3c7867f8	0.015161507
48	0xbd0b579d	-0.0340191
49	0xbd955887	-0.07292276
50	0x3d4aa95a	0.049477912
51	0x3cf0dc60	0.029401958
52	0x3becb0f4	0.007223243
53	0xbda083bd	-0.07837627
54	0xbd1022a5	-0.03518929
55	0x3d091a18	0.03347215
56	0x3c2eec30	0.010676429
57	0xbdb09b76	-0.08623402
58	0xbd899a27	-0.06718855
59	0xbd9dcec3	-0.07705452
60	0x3cfa6ff5	0.030570963
61	0x3dafaebf	0.08578252
62	0xbbf3d927	-0.007441658
63	0xbd847ebb	-0.064694844
64	0x3c02bc83	0.007979515
65	0xbd8873c0	-0.066627026
66	0xbd594b16	-0.053050123
67	0x3d5852bf	0.052813288
68	0xbdb020fc	-0.08600041
69	0x3d3acd1f	0.045605775
70	0x3d4ea5da	0.050451137
71	0x3d809cd3	0.06279912
72	0xbd876c2f	-0.06612431
73	0xbce3b8f4	-0.027798153
74	0xbd0c5b1c	-0.034266576
75	0xbc3cf0fa	-0.011532063
76	0xbb08b88c	-0.0020861952
77	0x3d3ad88f	0.045616683
78	0x3ca1e69f	0.019763289
79	0xbcb39eab	-0.021926245
80	0x3d8bc58f	0.06824791
81	0x3ca0facd	0.019650841
82	0xbcd874dd	-0.026422912
83	0x3d042474	0.032261327
84	0xbd8a6193	-0.06756892
85	0xbd9dda6b	-0.077076755
86	0x3d761e8a	0.060087718
87	0xbd2bb904	-0.04192449
88	0x3db3393c	0.08751151
89	0xbd39b4b9	-0.045338366
90	0xbba63aec	-0.005072942
91	0x3d9d22b9	0.076726384
92	0xbd99a5c4	-0.075023204
93	0xbccc95ad	-0.024973715
94	0xbd99df60	-0.075133085
95	0x3d7aa341	0.061190847
96	0xbd0e94f1	-0.03481001
97	0xbd63de71	-0.05563206
98	0x3cad9ded	0.021193469
99	0x3d849dd1	0.064754136
100	0xbd772e2b	-0.060346764
101	0xbd53b7b6	-0.051688872
102	0x3d0c1f65	0.034209628
103	0x3d157006	0.036483787
104	0x3da34665	0.07972411
105	0x3d10ddda	0.035367824
106	0xbd520bec	-0.0512809
107	0xbd982794	-0.07429424
108	0xbd7e84e5	-0.062138457
109	0xbccea5d7	-0.025225563
110	0x3d485fa8	0.04891935
111	0xbd07fce9	-0.03320018
112	0x3c128c91	0.008944646
113	0x3d76bfc5	0.06024148
114	0xbd7917da	-0.060813762
115	0x3c38b2af	0.01127307
116	0xbc1d6ed5	-0.009608944
117	0x3d8949ee	0.06703554
118	0xbd62ecc1	-0.055401567
119	0x3d3fd98f	0.04683834
120	0xbccc082a	-0.024906237
121	0x3da7ecaf	0.08199441
122	0x3cf5c635	0.030001739
123	0x3d29114c	0.04127626
124	0x3d808776	0.06275837
125	0x3cc38712	0.023868117
126	0x3d935330	0.07193601
127	0xbdaeab59	-0.08528776
128	0xbd895c7c	-0.06707093
129	0xbc5b2503	-0.0133755235
130	0x3bb4bf1f	0.0055159475
131	0xbc9913f2	-0.018686268
132	0xbd0efe63	-0.03491057
133	0x3c62e0d2	0.013847547
134	0x3c2c899a	0.010530854
135	0x3d97ff65	0.074217595
136	0xbdac6fb4	-0.08419743
137	0xbd9bd202	-0.07608415
138	0x3d9d1905	0.07670788
139	0xbdacba74	-0.084340006
140	0xbd7d5f6f	-0.06185859
141	0x3c6cd6f5	0.014455547
142	0x3dafc556	0.08582561
143	0x3db02bf9	0.08602137
144	0xbc503fdf	-0.012710541
145	0x3d39bef7	0.045348134
146	0x3b924641	0.0044639413
147	0x3c4d598b	0.012533556
148	0xbd771508	-0.06032279
149	0x3dac333c	0.0840821
150	0xbc4a3760	-0.012342304
151	0x3da62928	0.08113319
152	0xbd9fcb1b	-0.07802411
153	0x3bcc599d	0.0062362687
154	0x3cdaf997	0.026730342
155	0x3d9d0f5d	0.07668946
156	0x3cbec887	0.023288978
157	0x3cddf13f	0.027092574
158	0xbac701a1	-0.001518298
159	0xbcdca0ed	-0.026932204
160	0xbd6e2999	-0.05814514
161	0x3c9be313	0.019029176
162	0x3d8951f2	0.06705083
163	0x3d1adac5	0.03780629
164	0x3d26d096	0.040726267
165	0xbd8dcc1f	-0.06923699
166	0x3c81dbad	0.01585182
167	0x3c318133	0.010834026
168	0xbd8ca426	-0.06867246
169	0x3d244f9e	0.04011499
170	0xbd0e98dd	-0.03481375
171	0xbc81d24e	-0.015847351
172	0xbd68ed85	-0.05686714
173	0x3c43242a	0.011910478
174	0xbd719d56	-0.058987938
175	0x3d4c33af	0.049853977
176	0x3d1c53a6	0.03816571
177	0xbd5ac4e1	-0.053410415
178	0xbb38c36f	-0.002819266
179	0x3db2037b	0.0869207
180	0x3b3f6c44	0.0029208818
181	0xbd0e50d9	-0.03474507
182	0x3d8e7f40	0.06957865
183	0x3d336786	0.0437999
184	0x3c6252d3	0.013813692
185	0xbd0526bc	-0.032507643
186	0xbcf09c9a	-0.029371548
187	0xbd490d35	-0.04908486
188	0xbbf68383	-0.0075230016
189	0x3c5b8484	0.013398293
190	0x3cb33845	0.021877417
191	0x3ac06257	0.0014677745
192	0xbc163850	-0.009168699
193	0x3d816f18	0.063200176
194	0x3d09400c	0.033508345
195	0x3cd51c12	0.026014362
196	0x3da3c5c2	0.07996704
197	0xbd9bb3cf	-0.07602655
198	0x3d0e639c	0.034762964
199	0x3d392cd9	0.045208786
200	0x3d4447b1	0.047919933
201	0xbc3241fa	-0.010879988
202	0x3c9678ec	0.018368207
203	0xbd8a9c96	-0.06768148
204	0xbd44f1f6	-0.048082314
205	0x3caf4231	0.021393867
206	0x3b843db5	0.0040356764
207	0xbd4afa40	-0.049555063
208	0x3d00e7a0	0.031470895
209	0x3db4bdef	0.088252895
210	0xbd5766f8	-0.052588433
211	0x3d56fcaf	0.05248707
212	0x3d9a3665	0.07529906
213	0x3b77029d	0.0037690767
214	0x3d340995	0.04395445
215	0xbd40c948	-0.047066957
216	0xbd2e8f7b	-0.042617302
217	0x3d5302ea	0.05151645
218	0xbda4955f	-0.08036303
219	0x3dab928a	0.083775595
220	0x3da5a7f7	0.080886774
221	0x3d0895db	0.03334604
222	0x3d6cd484	0.05781986
223	0x3d95c0a5	0.07312135
224	0x3d01cb8b	0.031688254
225	0x3d46e36c	0.04855673
226	0x3d8305a0	0.06397557
227	0x3d9af250	0.07565749
228	0x3d1cfae1	0.038325194
229	0xbd72a5ba	-0.05924008
230	0x3d6c9ef1	0.057768766
231	0xbd22e681	-0.039770607
232	0x3d94ed64	0.07271841
233	0xbd801a86	-0.06255059
234	0xbc8eaf0f	-0.017417459
235	0xbda7e3e1	-0.08197761
236	0xbd08a65f	-0.03336179
237	0x38aa8049	8.130127e-05
238	0x3c6b54ca	0.014363477
239	0x3b7a94e7	0.0038235725
240	0xbca2ffda	-0.01989739
241	0xbbae93fa	-0.005327699
242	0xbcc56524	-0.02409608
243	0x3d7d11ad	0.061784435
244	0x3d061d5c	0.032742843
245	0xbd0d47cb	-0.034492295
246	0x3db1b073	0.08676233
247	0x3cfab990	0.030606061
248	0x3d58e247	0.05295017
249	0x3d5707c1	0.05249763
250	0x3c7b5f7d	0.01534259
251	0x3d6d6072	0.057953306
252	0xbd5cd0d2	-0.053910084
253	0x3d8daa7f	0.06917285
254	0x3cb745c0	0.022372127
255	0xbd41d310	-0.047320426

network.2.bias f4 [128]
0	0x3d4a3f33	0.049376678
1	0x3d9e0f5b	0.077177726
2	0xbd97d2e6	-0.074132726
3	0x3d6a2cdb	0.057171684
4	0xbd10fff8	-0.03540036
5	0x3d1874e1	0.03722084
6	0x3cbefce6	0.02331395
7	0x3d922a7e	0.07137011
8	0xbd4574fa	-0.04820726
9	0xbd204abb	-0.03913377
10	0xbdad225a	-0.08453818
11	0xbd71b731	-0.059012596
12	0xbd6a91ed	-0.057268072
13	0xbd99c2af	-0.07507836
14	0xbd4922cf	-0.04910546
15	0x3d0e8a80	0.034800053
16	0xbd124644	-0.03571154
17	0x3a1d7828	0.00060069794
18	0xbbd064e8	-0.006359685
19	0x3d2abe29	0.041685257
20	0xbd9f9606	-0.077922866
21	0x3d92c7d9	0.07167024
22	0x3d02b620	0.03191197
23	0x3d554726	0.052069806
24	0xbcf21d17	-0.029554887
25	0xbd8387ca	-0.06422384
26	0xbd91c6d9	-0.07118005
27	0xbd209ed2	-0.039213963
28	0x3d7fd38b	0.062457602
29	0xbd0e1910	-0.03469187
30	0xbc9b99c1	-0.018994214
31	0xbc7c6688	-0.015405305
32	0x3d1acec5	0.037794847
33	0x3d56fc87	0.052486923
34	0xbd35860d	-0.044317294
35	0xbd5a57c3	-0.053306352
36	0xbd8ab793	-0.06773295
37	0xbda8a789	-0.0823508
38	0xbd84797e	-0.06468485
39	0x3d0bd6c6	0.03414037
40	0x3d146f30	0.03623885
41	0xbd13465c	-0.03595577
42	0xbcd1259e	-0.025530633
43	0xbd9b4cb4	-0.07582989
44	0x3d867119	0.065645404
45	0x3b466b5e	0.0030276398
46	0x3d560475	0.052250344
47	0xbd04f449	-0.03245953
48	0x3c23c0a6	0.009994661
49	0xbda9ff2c	-0.08300623
50	0x3d36ca04	0.04462625
51	0x3d8b3303	0.06796839
52	0xbc5e9655	-0.013585647
53	0x3aa0b15a	0.0012259886
54	0x3d7a0a03	0.061044704
55	0xbd064a15	-0.032785494
56	0x3d1d2329	0.03836361
57	0xbca79392	-0.02045611
58	0xbd1f8e09	-0.038953815
59	0x3d1ed315	0.038775522
60	0x3d300e1d	0.04298221
61	0x3da52135	0.08062974
62	0x3d3f85a2	0.0467583
63	0xbd78208a	-0.060577907
64	0x3da09c7c	0.07842347
65	0xbd928665	-0.0715454
66	0xbc0fcc1c	-0.008776691
67	0xbda87cda	-0.082269385
68	0xbdb3694c	-0.08760318
69	0xbd5ad3b7	-0.053424563
70	0x3d885ca4	0.06658295
71	0xbd85ac28	-0.06526977
72	0x3cc0972d	0.023509586
73	0x3cfcc3a6	0.030855011
74	0xbb5d6515	-0.0033782173
75	0x3d778412	0.060428686
76	0xbd1f6d93	-0.038922857
77	0xbd88c4a0	-0.06678128
78	0x3da59355	0.08084742
79	0x3d9e874d	0.0774065
80	0x3d0f5fef	0.0350036
81	0xbc95d7bf	-0.018291352
82	0xbc68cf4a	-0.014209578
83	0x3d80ed15	0.0629522
84	0x3c9ccd04	0.019140728
85	0xbcb490b8	-0.022041664
86	0x3d90030d	0.07031832
87	0xbd86d6c9	-0.06583936
88	0xbd198cf0	-0.037487924
89	0x3c621ded	0.01380108
90	0xbd895c4b	-0.067070566
91	0x3d384eb2	0.044996925
92	0x3d70c9a0	0.058786035
93	0x3d19e436	0.037571155
94	0x3cab67dd	0.02092355
95	0xbd62c191	-0.05536038
96	0x3d7c49df	0.061593886
97	0x3cafb5d3	0.021449005
98	0x3d61a0fd	0.05508517
99	0x3d585bf3	0.052822065
100	0x3c0a2e2a	0.008433858
101	0xbd88cdbd	-0.066798665
102	0xbd0802ab	-0.03320567
103	0xbd82b506	-0.06382184
104	0xbc284ac7	-0.010271735
105	0x3d867c39	0.06566662
106	0x3d7058d4	0.058678463
107	0xbc05a852	-0.0081578065
108	0xbce9663c	-0.028491132
109	0xbcb03126	-0.02150781
110	0x3d410508	0.04712394
111	0x3d9a2b1f	0.07527756
112	0xbd3debab	-0.04636733
113	0x3cd6285a	0.026142288
114	0xbdb3406e	-0.08752523
115	0x3da71ad4	0.08159414
116	0x3d2cdc14	0.04220207
117	0xbd245a66	-0.040125273
118	0x3d8bb7b8	0.06822151
119	0xbdaf2ac4	-0.08553079
120	0x3c8dc0d4	0.017303862
121	0xbda6b29d	-0.081395365
122	0xbb4328fb	-0.0029779065
123	0xbd9eabcb	-0.07747611
124	0xbd801bd9	-0.062553115
125	0x3ca14172	0.019684527
126	0x3cc172c1	0.02361429
127	0x3d295887	0.041344192

network.4.weight f4 [2, 128]
0	0x3d9678ff	0.07347297
1	0x3b1c9dd6	0.0023897788
2	0x3d2e28a4	0.042519227
3	0xbc88c13b	-0.016693702
4	0x3c3b2c2a	0.011424104
5	0x3ce1c4da	0.027559686
6	0x3d415741	0.047202352
7	0xbc19f863	-0.009397599
8	0x3b9713e9	0.004610528
9	0x3d85c66a	0.06531985
10	0xbd78f94d	-0.060784627
11	0xbca383e2	-0.019960348
12	0x3c3938c5	0.011305039
13	0x3ccdefbd	0.02513873
14	0x3d005f32	0.031340785
15	0x3caeebf8	0.021352753
16	0xbd822f43	-0.06356671
17	0xbd52f175	-0.051499803
18	0xbd1d0075	-0.038330514
19	0xbd451d02	-0.048123367
20	0x3d2efeea	0.042723574
21	0x3d092d60	0.03349054
22	0x3d7a8eac	0.06117122
23	0x3d87d4ba	0.06632371
24	0xbd250694	-0.040289477
25	0x3d6a4625	0.0571958
26	0x3c2353c1	0.009968699
27	0xbda862a0	-0.08221936
28	0x3c8b3678	0.016993746
29	0xbc77fccc	-0.015135955
30	0xbcd8de00	-0.026473045
31	0xbc9d1080	-0.019172907
32	0x3d3d718f	0.046250876
33	0x3d51c0af	0.051209148
34	0x3d765138	0.06013605
35	0xbc3f4621	-0.011674435
36	0xbb6f5a29	-0.0036522246
37	0xbd925c6f	-0.071465366
38	0xbd859e46	-0.06524329
39	0xbbeb32d9	-0.0071776924
40	0xbd1dab25	-0.038493294
41	0xba31a154	-0.0006776054
42	0xbc44fd87	-0.012023336
43	0xbda1f9c3	-0.079089664
44	0x3b4f2820	0.003160961
45	0x3d7b0df9	0.061292622
46	0xbd74a727	-0.05972972
47	0x3d794814	0.060859755
48	0xbd569be0	-0.052394748
49	0xbd0ff624	-0.035146847
50	0xbcccc5c2	-0.024996642
51	0x3d935639	0.0719418
52	0xbd80f79f	-0.0629723
53	0x3be698a2	0.007037238
54	0x3d1dd667	0.038534548
55	0x3c95d529	0.01829012
56	0x3d2e4780	0.042548656
57	0xbdad8b86	-0.084738776
58	0xbd9d56e2	-0.07682587
59	0x3d828a9e	0.063740954
60	0xbdaa2f03	-0.08309748
61	0x3d057d09	0.032589946
62	0xbd49bc6d	-0.049251962
63	0xbd96e615	-0.073681034
64	0xbbed7258	-0.007246297
65	0xba342636	-0.0006872149
66	0x3ce1644a	0.027513642
67	0x3d942df4	0.07235327
68	0xbc8f3097	-0.017479224
69	0x3cf00c6b	0.029302796
70	0xbba2070f	-0.004944689
71	0xbd84ead8	-0.064901054
72	0x3d9882dd	0.07446835
73	0xbd94b12e	-0.07260357
74	0xbda84403	-0.08216097
75	0x3d9f8f60	0.077910185
76	0xbda38d27	-0.07985907
77	0xbd93db7e	-0.07219599
78	0xbd826570	-0.06367004
79	0xbd42e867	-0.047584917
80	0xbc852adb	-0.016255787
81	0x3d4b3364	0.049609557
82	0x3da29be9	0.07939894
83	0x3a1f836a	0.0006084951
84	0x3d91471b	0.070936404
85	0xbdad0cf2	-0.08449735
86	0x3d9251bd	0.071444966
87	0x3b0eea3c	0.0021807095
88	0x3c7ce789	0.015436062
89	0x3d9469d7	0.0724675
90	0xbd1417af	-0.0361554
91	0x3d60d541	0.054890875
92	0x3d26cc9c	0.040722474
93	0xbc01a9fa	-0.007914061
94	0x3ce9dbd0	0.028547198
95	0x3db22d52	0.087000504
96	0xbb7be4f5	-0.003843603
97	0x3d223e34	0.039610103
98	0xbc21a761	-0.009866566
99	0xbd6b0149	-0.057374272
100	0x3d131975	0.03591295
101	0xbdaed817	-0.085373096
102	0xbc06d09a	-0.008228445
103	0x3db238d8	0.08702248
104	0xbcab3647	-0.020899905
105	0xbd953dd3	-0.07287183
106	0xbd1a6892	-0.037697382
107	0xbdacfae6	-0.084462926
108	0x3cac7e28	0.02105625
109	0xbd4d164d	-0.050070096
110	0xbcf7fd1b	-0.030272057
111	0xbd6da679	-0.05802009
112	0xbd1e961b	-0.03871737
113	0xbcf0751d	-0.029352719
114	0x3b2fd3c4	0.0026829103
115	0x3da01aad	0.07817588
116	0x3d00eb04	0.03147413
117	0xbd8e67aa	-0.06953366
118	0xbd8681de	-0.06567739
119	0xbc2e7521	-0.010648043
120	0x3d9c5c14	0.0763475
121	0xbc40ed3e	-0.011775313
122	0x3d161a01	0.036645893
123	0xbb9297ed	-0.0044736774
124	0x3d40ba19	0.047052477
125	0xbd5c83b1	-0.05383653
126	0xbd7d6d47	-0.061871793
127	0x3c03c526	0.008042609
128	0x3d29df7f	0.041472908
129	0x3c84529d	0.016152674
130	0xbb79b986	-0.0038104965
131	0x3db01a70	0.085987926
132	0x3da98a3e	0.08278321
133	0xbd2f079c	-0.042731866
134	0xbdb06ec2	-0.086148754
135	0x3b938118	0.004501473
136	0xbccce715	-0.025012532
137	0xbc343c00	-0.011000633
138	0xbd86832c	-0.06567988
139	0xbd0d05de	-0.034429424
140	0xbb2f3313	-0.0026733323
141	0xbd7dc98e	-0.061959796
142	0x3d85152c	0.06498179
143	0x3cee5170	0.029091567
144	0xbda5c228	-0.08093673
145	0xbc229246	-0.00992257
146	0xbd401297	-0.04689273
147	0x3d24b910	0.04021555
148	0xbc198bc2	-0.0093717
149	0xbc074cc9	-0.008258053
150	0x3d70cca4	0.05878891
151	0x3da6c0c4	0.08142236
152	0x3d71cdc6	0.05903413
153	0x3db36b80	0.087607384
154	0xbd195d46	-0.037442468
155	0x3d6d2a0b	0.057901423
156	0x3c12842b	0.008942644
157	0xbc2a1a05	-0.01038218
158	0x3c5ba790	0.013406649
159	0x3ca05830	0.019573301
160	0xbb24d499	-0.0025151132
161	0x3d468d69	0.048474703
162	0x3db30e97	0.08743017
163	0xbc0fad93	-0.008769411
164	0x3ce74b88	0.028234258
165	0xbcd4a2a6	-0.025956463
166	0x3c4fb937	0.012678436
167	0x3d0cb0ac	0.034348175
168	0x3bef7316	0.0073074205
169	0xbc297407	-0.0103426045
170	0x397df90e	0.0002422074
171	0x3b2dc79f	0.0026516689
172	0x3cc1d8e3	0.02366299
173	0xbd587e5b	-0.052854877
174	0x3d7e8f12	0.06214816
175	0xbd30e44d	-0.043186475
176	0xbc1ce695	-0.009576459
177	0x3daf2cd7	0.085534744
178	0xbd8f4a37	-0.06996577
179	0xbc463ee9	-0.01209996
180	0x3d056e9e	0.032576196
181	0xbd1d240e	-0.038364463
182	0x3daeeee6	0.0854166
183	0x3d1f3594	0.038869455
184	0x3d802ebd	0.062589146
185	0xbd8c0760	-0.06837344
186	0x3d2b49ab	0.041818302
187	0x3d1e1887	0.03859761
188	0xbb6236cf	-0.0034517532
189	0xbc305bed	-0.010764104
190	0x3d75102b	0.059829872
191	0x3d544547	0.05182388
192	0xbc206ba8	-0.009791292
193	0xbd0144e5	-0.031559844
194	0x3d5b4395	0.053531248
195	0xbd72254f	-0.05911761
196	0x3c2956fe	0.010335682
197	0xbd58f526	-0.052968167
198	0xbc1dd20c	-0.009632599
199	0x3c0ac867	0.008470631
200	0xbbf86acc	-0.0075810906
201	0x3d124a90	0.03571564
202	0x3d8cd938	0.06877369
203	0x3d53b9a2	0.051690705
204	0x3d01175d	0.03151642
205	0x3d937426	0.07199888
206	0x3d51618b	0.051118415
207	0x3d0cebbd	0.034404505
208	0x3d7fae41	0.06242204
209	0x3d7f9349	0.06239632
210	0xbce83891	-0.028347285
211	0x3da770f6	0.081758425
212	0x3a57ebf3	0.00082367583
213	0xbd38e675	-0.045141656
214	0xbd400325	-0.046878
215	0xbcf1f6d7	-0.029536648
216	0xbcbf0de4	-0.023322053
217	0x3ced4e87	0.028968109
218	0xbd903b19	-0.07042522
219	0xbd8005fd	-0.06251142
220	0x3d9c5403	0.076332115
221	0x3d31b5a3	0.043386113
222	0x3d728c87	0.05921605
223	0xbd72746e	-0.059193067
224	0x3d1e4a25	0.03864493
225	0x3d01fce0	0.0317353
226	0x3cf8807f	0.03033471
227	0x3d93e51c	0.072214335
228	0x3d661070	0.05616802
229	0xbc1d64d8	-0.009606563
230	0x3d2d9a20	0.042383313
231	0xbca63d6b	-0.020292958
232	0xbcf6480c	-0.030063652
233	0x3d30a802	0.043128975
234	0x3d8acf44	0.06777814
235	0x3ca227c3	0.01979435
236	0x3d49e595	0.049291212
237	0xbcefbc84	-0.029264696
238	0xbd8b97ef	-0.068160884
239	0xbc2aba9f	-0.0104204705
240	0xbd2b9e22	-0.041898854
241	0xbd9dbfb6	-0.077025816
242	0xbd55fb13	-0.052241396
243	0xbd8ce7e7	-0.06880169
244	0x3c2a8ec8	0.010410018
245	0x3d5c05df	0.053716537
246	0x3d89f304	0.06735805
247	0xbc83e03d	-0.016098136
248	0xbc7fa151	-0.015602426
249	0xbd5351fa	-0.05159185
250	0x3d363ab8	0.044489592
251	0x3cbcdb90	0.023053914
252	0xbd42ebc3	-0.04758812
253	0x3d1e959b	0.038716894
254	0x3b8806b6	0.0041511906
255	0xbd6beb45	-0.057597417

network.4.bias f4 [2]
0	0xbd819461	-0.06327129
1	0x3cb8e0de	0.022568163
